…
      "- This IS NOT expected if you are initializing BertForMaskedLM from the checkpoint of a model that you expect to be exactly identical (initializing a BertForSequenceClassification model from a BertForSequenceClassification model).\n"
     ]
    }
   ],
   "source": [
    "model = AutoModelForMaskedLM.from_pretrained(model_name)"
   ]
  },
  {
   "cell_type": "code",
   "execution_count": 29,
   "id": "972e4b84",
   "metadata": {},
   "outputs": [
    {
     "data": {
      "text/plain": [
       "BertForMaskedLM(\n",
       "  (bert): BertModel(\n",
       "    (embeddings): BertEmbeddings(\n",
       "      (word_embeddings): Embedding(29564, 312, padding_idx=0)\n",
       "      (position_embeddings): Embedding(512, 312)\n",
       "      (token_type_embeddings): Embedding(2, 312)\n",
       "      (LayerNorm): LayerNorm((312,), eps=1e-12, elementwise_affine=True)\n",
       "      (dropout): Dropout(p=0.1, inplace=False)\n",
       "    )\n",
       "    (encoder): BertEncoder(\n",
       "      (layer): ModuleList(\n",
       "        (0): BertLayer(\n",
       "          (attention): BertAttention(\n",
       "            (self): BertSelfAttention(\n",
       "              (query): Linear(in_features=312, out_features=312, bias=True)\n",
       "              (key): Linear(in_features=312, out_features=312, bias=True)\n",
       "              (value): Linear(in_features=312, out_features=312, bias=True)\n",
       "              (dropout): Dropout(p=0.1, inplace=False)\n",
       "            )\n",
       "            (output): BertSelfOutput(\n",
       "              (dense): Linear(in_features=312, out_features=312, bias=True)\n",
       "              (LayerNorm): LayerNorm((312,), eps=1e-12, elementwise_affine=True)\n",
       "              (dropout): Dropout(p=0.1, inplace=False)\n",
       "            )\n",
       "          )\n",
       "          (intermediate): BertIntermediate(\n",
       "            (dense): Linear(in_features=312, out_features=600, bias=True)\n",
       "          )\n",
       "          (output): BertOutput(\n",
       "            (dense): Linear(in_features=600, out_features=312, bias=True)\n",
       "            (LayerNorm): LayerNorm((312,), eps=1e-12, elementwise_affine=True)\n",
       "            (dropout): Dropout(p=0.1, inplace=False)\n",
       "          )\n",
       "        )\n",
       "        (1): BertLayer(\n",
       "          (attention): BertAttention(\n",
       "            (self): BertSelfAttention(\n",
       "              (query): Linear(in_features=312, out_features=312, bias=True)\n",
       "              (key): Linear(in_features=312, out_features=312, bias=True)\n",
       "              (value): Linear(in_features=312, out_features=312, bias=True)\n",
       "              (dropout): Dropout(p=0.1, inplace=False)\n",
       "            )\n",
       "            (output): BertSelfOutput(\n",
       "              (dense): Linear(in_features=312, out_features=312, bias=True)\n",
       "              (LayerNorm): LayerNorm((312,), eps=1e-12, elementwise_affine=True)\n",
       "              (dropout): Dropout(p=0.1, inplace=False)\n",
       "            )\n",
       "          )\n",
       "          (intermediate): BertIntermediate(\n",
       "            (dense): Linear(in_features=312, out_features=600, bias=True)\n",
       "          )\n",
       "          (output): BertOutput(\n",
       "            (dense): Linear(in_features=600, out_features=312, bias=True)\n",
       "            (LayerNorm): LayerNorm((312,), eps=1e-12, elementwise_affine=True)\n",
       "            (dropout): Dropout(p=0.1, inplace=False)\n",
       "          )\n",
       "        )\n",
       "        (2): BertLayer(\n",
       "          (attention): BertAttention(\n",
       "            (self): BertSelfAttention(\n",
       "              (query): Linear(in_features=312, out_features=312, bias=True)\n",
       "              (key): Linear(in_features=312, out_features=312, bias=True)\n",
       "              (value): Linear(in_features=312, out_features=312, bias=True)\n",
       "              (dropout): Dropout(p=0.1, inplace=False)\n",
       "            )\n",
       "            (output): BertSelfOutput(\n",
       "              (dense): Linear(in_features=312, out_features=312, bias=True)\n",
       "              (LayerNorm): LayerNorm((312,), eps=1e-12, elementwise_affine=True)\n",
       "              (dropout): Dropout(p=0.1, inplace=False)\n",
       "            )\n",
       "          )\n",
       "          (intermediate): BertIntermediate(\n",
       "            (dense): Linear(in_features=312, out_features=600, bias=True)\n",
       "          )\n",
       "          (output): BertOutput(\n",
       "            (dense): Linear(in_features=600, out_features=312, bias=True)\n",
       "            (LayerNorm): LayerNorm((312,), eps=1e-12, elementwise_affine=True)\n",
       "            (dropout): Dropout(p=0.1, inplace=False)\n",
       "          )\n",
       "        )\n",
       "      )\n",
       "    )\n",
       "  )\n",
       "  (cls): BertOnlyMLMHead(\n",
       "    (predictions): BertLMPredictionHead(\n",
       "      (transform): BertPredictionHeadTransform(\n",
       "        (dense): Linear(in_features=312, out_features=312, bias=True)\n",
       "        (LayerNorm): LayerNorm((312,), eps=1e-12, elementwise_affine=True)\n",
       "      )\n",
       "      (decoder): Linear(in_features=312, out_features=29564, bias=True)\n",
       "    )\n",
       "  )\n",
       ")"
      ]
     },
     "execution_count": 29,
     "metadata": {},
     "output_type": "execute_result"
    }
   ],
   "source": [
    "model.to('cuda')"
   ]
  },
  {
   "cell_type": "code",
   "execution_count": 26,
   "id": "985c7912",
   "metadata": {},
   "outputs": [],
   "source": [
    "training_args = TrainingArguments(\n",
…
